model_state/mod_untitled.pt (torch, 973847 bytes, 8 tensors)

fc1.weight f4 [256, 784]
0	0x3cc21dae	0.023695793
1	0xbc1bae0e	-0.009501947
2	0x3c97bb72	0.018521998
3	0x3c269258	0.010166727
4	0x3cf13702	0.029445175
5	0xbb8a2470	-0.0042157695
6	0xbc261526	-0.010136878
7	0x3cf9cee2	0.030494157
8	0xbc602e0e	-0.013682855
9	0xbc4ea9ce	-0.012613727
10	0xbcac98fc	-0.021069042
11	0x3c3f3d1c	0.011672284
12	0xbc9920f2	-0.018692467
13	0xbbd7a7b0	-0.006581269
14	0xbc8377c5	-0.016048322
15	0x3d03db89	0.032191787
16	0xbd0114b4	-0.031513885
17	0xbd124600	-0.03571129
18	0x3c239d58	0.009986244
19	0x3c82343c	0.015894048
20	0x3c80256c	0.015642844
21	0xbce8bd58	-0.028410599
22	0xba9abf00	-0.001180619
23	0x3c9315fc	0.017954819
24	0xbb04f910	-0.0020290054
25	0x3cde452e	0.027132597
26	0x3c9fa23a	0.019486535
27	0x3bc42920	0.005986348
28	0x3ba01380	0.004885137
29	0x3ca14902	0.019688133
30	0x3d03090d	0.031991053
31	0xbce9911a	-0.028511573
32	0x3c36a38b	0.01114739
33	0x3c4a0fcf	0.012332871
34	0xbb93d58d	-0.004511541
35	0xbd11027f	-0.03540277
36	0xbb47db77	-0.0030495801
37	0xbc98d10c	-0.018654369
38	0xbcd892ac	-0.026437126
39	0x39ee4e3d	0.0004545319
40	0xbc40e7ce	-0.011774017
41	0x3c9eb42c	0.019373022
42	0xbc33cd45	-0.010974233
43	0xbc3b04f9	-0.01141476
44	0xbc875213	-0.016518628
45	0x3ce7dd69	0.028303819
46	0xbcdf7009	-0.027275102
47	0x3cfcb221	0.030846657
48	0x3ca5b269	0.020226674
49	0x3c4e0aff	0.012575864
50	0x3d1047c4	0.03522469
51	0xbc548f3a	-0.012973601
52	0xbb9dd1c8	-0.0048162676
53	0x3c042d9c	0.008067515
54	0x3d03c525	0.032170434
55	0x3ca1e91a	0.019764472
56	0x3b945a88	0.0045273937
57	0xbd095d8a	-0.03353647
58	0xbc91ee3e	-0.017813798
59	0xbcef1053	-0.029182589
60	0x3c4b4a9a	0.012407923
61	0xbd0056a0	-0.031332612
62	0xbcb24275	-0.021760205
63	0x3cffde2e	0.031233873
64	0xbcdf8a5f	-0.02728766
65	0x3cda4e77	0.026648743
66	0x3bc97afc	0.006148694
67	0x3cd61bdf	0.026136337
68	0xbb3951b0	-0.002827745
69	0xbcddae4e	-0.027060654
70	0xbca57fb7	-0.0202025
71	0xbcfd332d	-0.030908192
72	0xbae1bc53	-0.0017222263
73	0x3cb958cf	0.022625355
74	0xbcd23352	-0.025659237
75	0x3ca398aa	0.019970257
76	0x3c8526b1	0.016253801
77	0x3b2c89e3	0.0026327304
78	0xbc8fee6f	-0.017569749
79	0xbca925cb	-0.020647904
80	0xb7e788d9	-2.760107e-05
81	0x3d042542	0.032262094
82	0xbc67a192	-0.014137642
83	0xbcbfe015	-0.02342228
84	0x3b5c1c90	0.003358636
85	0x3cbaa67c	0.022784464
86	0xbbd8fde5	-0.0066220635
87	0xbce232df	-0.027612148
88	0x3c620719	0.0137956375
89	0x3c8214be	0.015879031
90	0x3cc432bd	0.023949975
91	0x3ccae3c9	0.02476682
92	0xbc63c99b	-0.013903047
93	0xbc2b9c5c	-0.010474291
94	0x3c087bbc	0.008330282
95	0xbce10fb7	-0.027473314
96	0xbc9b73a4	-0.01897604
97	0xbac4cf9b	-0.0015015485
98	0xbc0dc1a4	-0.008652125
99	0xbbac4709	-0.0052574915
100	0x3c8c2cda	0.01711123
101	0x3b8e5bdc	0.0043444466
102	0x3bd08220	0.0063631684
103	0x3d116f15	0.035506327
104	0x3cb42246	0.021989
105	0x3c1797ce	0.009252502
106	0x3c8408f1	0.016117545
107	0x3b96ae80	0.0045984387
108	0xba1551bf	-0.000569608
109	0x3cf78aab	0.03021749
110	0x3bc7b05f	0.006094023
111	0xbc0660a0	-0.008201748
112	0xbc2b437c	-0.010453101
113	0x3d0fb3d5	0.03508361
114	0xbc0cd7b4	-0.0085963495
115	0x3ca0fa42	0.019650582
116	0x3c3cd37f	0.011525034
117	0x3cec1534	0.028818704
118	0xbb139510	-0.0022519268
119	0xbc2e8964	-0.010652874
120	0x3c988e35	0.018622497
121	0x3d0a043d	0.03369545
122	0xbc9ffd53	-0.019529974
123	0x3b95dc03	0.0045733466
124	0xbcf4cd95	-0.029883185
125	0xbc8016fd	-0.015635962
126	0x3c72fdfd	0.014831063
127	0x3ce3740f	0.027765302
128	0xbb73d984	-0.0037208507
129	0x3c569984	0.013098124
130	0x3c8ca493	0.017168319
131	0x3cff6c67	0.03117962
132	0x3d03ccc5	0.032177705
133	0x3d1277f7	0.03575894
134	0xbcbc935a	-0.023019481
135	0xbb9c6cd4	-0.0047737155
136	0xbce65de3	-0.02812094
137	0x3cc81058	0.024421856
138	0x3d0edd7f	0.034879204
139	0x3ca006cc	0.019534491
140	0xbb1e47f0	-0.0024151765
141	0xbaaee6e0	-0.0013343953
142	0xbbaae8ec	-0.0052157547
143	0xb8a6ee9b	-7.9599406e-05
144	0xbcddd3b4	-0.027078487
145	0xbc5a1561	-0.013310761
146	0x3cfed220	0.031106055
147	0x3c87712f	0.016533462
148	0x3c9b70a3	0.018974608
149	0xbc97cb37	-0.018529518
150	0xbc63d89a	-0.013906622
151	0x3ba29930	0.004962109
152	0x3cf17cce	0.029478457
153	0x3d0ad773	0.033896875
154	0xbb8efa1d	-0.004363312
155	0x3c11d454	0.008900721
156	0x3d37b0e3	0.044846427
157	0x3d1375fc	0.03600119
158	0xbcc70f08	-0.02429916
159	0x3d2a1bb4	0.041530326
160	0x3c2d5a50	0.010580614
161	0x3cce968c	0.02521827
162	0xbccac466	-0.024751853
163	0x3c2347a2	0.009965809
164	0x3c577730	0.013150975
165	0xbb027c17	-0.001991039
166	0x3cb62766	0.022235584
167	0x3c9252ba	0.017861713
168	0x3c3ec888	0.01164449
169	0x3cf5f61b	0.030024579
170	0x3cf1fc26	0.029539179
171	0x3bcaf6e5	0.006193983
172	0x3c230148	0.009949036
173	0xbc0b067e	-0.008485435
174	0xba8e7bb0	-0.0010870602
175	0xbcaadf32	-0.020858381
176	0xbcca7eea	-0.02471872
177	0x3d096548	0.033543855
178	0x3d0f724d	0.035021115
179	0x3c8409c3	0.016117936
180	0x3bcbb9e8	0.00621723
181	0xbcc06603	-0.023486143
182	0xbd070bc9	-0.032970224
183	0x3c19c1ef	0.009384616
184	0x3aa43051	0.0012526606
185	0xbc89d2bb	-0.016824117
186	0xbcda0a77	-0.026616318
187	0x3d0f4ef0	0.03498739
188	0x3c9c5ca2	0.01908714
189	0x3cc1166c	0.023570262
190	0xbd08d369	-0.03340474
191	0xbd0849dd	-0.033273567
192	0x3cb85236	0.022500139
193	0xbcc1e392	-0.023668084
194	0x3d04c141	0.032410864
195	0xbb961707	-0.004580382
196	0xbb696742	-0.0035614525
197	0xbb80f073	-0.003934914
198	0xbc95da96	-0.018292706
199	0x3c98fa9e	0.018674191
200	0xbd046844	-0.032325998
201	0xbcf54f40	-0.029945016
202	0xbc2d5195	-0.010578533
203	0xbcb4cc85	-0.022070179
204	0x3cfcd307	0.030862344
205	0xbbdb782a	-0.0066976743
206	0x3c969ad1	0.01838437
207	0xbcb50f43	-0.022102004
208	0x3c0603f9	0.008179658
209	0xbbfac001	-0.007652283
210	0xbcac6366	-0.02104349
211	0xbc70fcd1	-0.014708714
212	0xbb659be9	-0.0035035557
213	0x3c7b6e45	0.0153461145
214	0x3ced4151	0.02896181
215	0x3d015047	0.0315707
216	0x3a240bc0	0.00062578544
217	0xbb9b84b6	-0.004746045
218	0x39ab5fb8	0.00032686978
219	0xbc4948a7	-0.012285388
220	0xbc1a170e	-0.009404911
221	0x3ccea72a	0.025226194
222	0xbced9f84	-0.029006727
223	0x3c65060f	0.013978495
224	0xbc8ca9d6	-0.017170828
225	0x3d0a4b4a	0.033763207
226	0x3ce31ea5	0.027724573
227	0xbcfb0aaa	-0.030644733
228	0x3a0e53a6	0.00054293347
229	0xbcc746fa	-0.024325836
230	0x3c747a38	0.014921717
231	0x3bc2420d	0.005928284
232	0x3cfe496b	0.031040868
233	0x3a7c94ee	0.00096352294
234	0x3ce71589	0.028208511
235	0xbcf48d40	-0.02985251
236	0xbcc447aa	-0.023959953
237	0xbceccfd7	-0.0289077
238	0x3c32fa1c	0.0109238885
239	0xbbb8da31	-0.005641245
240	0x3ceaa4f2	0.028643105
241	0xbbdb6267	-0.00669508
242	0xbc49d899	-0.012319707
243	0x3d30a816	0.04312905
244	0xbb515c82	-0.0031946008
245	0x3c3320d2	0.010933118
246	0x3ca54631	0.020175071
247	0xbd125998	-0.035729975
248	0xbca2f38f	-0.019891528
249	0xbc9f6b8b	-0.01946046
250	0x39394136	0.00017667268
251	0xbcc6c470	-0.02426359
252	0xbd11af48	-0.03556755
253	0x3c95921c	0.018258147
254	0xbce59dd2	-0.028029356
255	0x3c9e920e	0.019356754

fc1.bias f4 [256]
0	0xbc2ef662	-0.010678859
1	0x3cf2745d	0.029596502
2	0x3c3a0dd6	0.011355838
3	0x3cc72566	0.024309825
4	0xbbbef727	-0.0058278027
5	0xbd69fb71	-0.05712456
6	0xbc8bb138	-0.017052278
7	0x3ca027bc	0.019550197
8	0xbd4bee42	-0.049787767
9	0xbd4b909b	-0.049698453
10	0x3d46e7e5	0.048560996
11	0x3c353056	0.0110588875
12	0xbc373c1e	-0.011183767
13	0x3caf05a6	0.021364998
14	0xbd1f05cf	-0.0388239
15	0x3c7e2c87	0.015513546
16	0x3cef3ab6	0.0292028
17	0x3d1e37ea	0.038627543
18	0x3bfc1a8f	0.0076935957
19	0x3d0521fe	0.03250312
20	0x3d6bc409	0.05756
21	0x3b13912a	0.0022516944
22	0x3bcfd3d4	0.0063423906
23	0x3c2ec496	0.010666987
24	0xbb08c35e	-0.00208684
25	0x3c3c9cea	0.011512021
26	0xbc8ee86a	-0.017444808
27	0x3d70077c	0.058600888
28	0xbb21cb1b	-0.002468771
29	0xbc1177a7	-0.008878625
30	0x3dabfa10	0.08397305
31	0x3d46d9ea	0.048547663
32	0x3be21965	0.0069
33	0x3b9f637c	0.0048641544
34	0xbce1479c	-0.027499966
35	0xbbe0be71	-0.00685864
36	0xbce5e51a	-0.028063346
37	0xbcc487ef	-0.0239906
38	0x3bb23b34	0.0054391865
39	0x3cb82db8	0.022482738
40	0x3ca3c1d4	0.019989885
41	0x3d23e9ee	0.040018015
42	0xbca379d4	-0.019955553
43	0xbc401836	-0.011724522
44	0x3c00dab3	0.007864642
45	0xbca9b457	-0.020715876
46	0xbccd1345	-0.025033602
47	0x3bfd38ae	0.007727704
48	0xb9f88972	-0.0004740465
49	0x3bbbf08b	0.005735462
50	0xbc0e64eb	-0.008691053
51	0xbca648e1	-0.020298423
52	0x3d6bd86a	0.057579435
53	0xbbc0a4dc	-0.005879028
54	0xbcdbab7e	-0.026815172
55	0x3c176e38	0.009242587
56	0x3cf8b1b6	0.030358177
57	0xbd3b572c	-0.04573743
58	0xbc1bd1d0	-0.009510472
59	0x3d42b691	0.04753739
60	0xbab00c18	-0.0013431339
61	0x3cc78b11	0.024358304
62	0xbbfad23e	-0.0076544574
63	0x3d112955	0.035439808
64	0x3d4d840c	0.050174758
65	0x3ccd3f90	0.025054723
66	0x3d278865	0.04090156
67	0x3ce83ad3	0.028348362
68	0x3cdaec0b	0.026723882
69	0x3bf8b841	0.007590324
70	0xbc442d33	-0.011973667
71	0x3cb5e4d8	0.022203848
72	0xbc7d9ee6	-0.015479779
73	0x3c2b2179	0.010444992
74	0x3b935fda	0.0044975104
75	0x3d2364c1	0.03989101
76	0xbcdc8068	-0.026916698
77	0x3d44f2ad	0.048082996
78	0xbcf185b6	-0.029482704
79	0x3ca295cf	0.019846825
80	0x3cc5875f	0.024112402
81	0x3d251363	0.04030169
82	0xb9d048f9	-0.0003972722
83	0x3b3e063f	0.0028995422
84	0x38b02fbf	8.4012274e-05
85	0x3ca8595c	0.020550422
86	0x3cdf5bd2	0.027265463
87	0x3cac9013	0.021064794
88	0x3cc28f3e	0.023749944
89	0x3d3414ef	0.043965276
90	0x3c552a21	0.013010533
91	0xba9d37df	-0.00119948
92	0x3bf9e7c4	0.0076265056
93	0x3cbf15f6	0.023325901
94	0x3d6798bf	0.056542154
95	0xbcde528b	-0.027138969
96	0x3cf1867d	0.029483074
97	0x3d41ef25	0.047347207
98	0x3c7553c9	0.014973589
99	0x3c6859ad	0.014181537
100	0x38cabb34	9.66698e-05
101	0xbd068546	-0.032841943
102	0x3d3fffe1	0.046874885
103	0x3d1e2773	0.03861184
104	0x3c16ff85	0.009216194
105	0xbc25b52f	-0.010113998
106	0x3d57ef7e	0.052718632
107	0xb90087b2	-0.00012257582
108	0xba4ecaa5	-0.0007888473
109	0xbcacc096	-0.021087926
110	0x3c3486a3	0.011018428
111	0xbc1525e7	-0.009103275
112	0x3d3f374b	0.04668359
113	0x3c3af20b	0.011410247
114	0xbb801508	-0.003908757
115	0xbce437ce	-0.027858641
116	0xbbe7f51c	-0.00707878
117	0xbb00f720	-0.0019678548
118	0x3d111f05	0.035429973
119	0x3b3d31f4	0.0028868886
120	0xbc1bdb77	-0.009512774
121	0xbc189b37	-0.00931435
122	0xbc9d8776	-0.019229632
123	0x3c6f07a7	0.014589227
124	0xb978e2fd	-0.00023735683
125	0xbbcbb463	-0.006216572
126	0xbccf9c72	-0.025343154
127	0x3d6ddae0	0.058070064
128	0x3bacadfd	0.0052697645
129	0x3d17edb7	0.037091937
130	0x3d57fd4f	0.05273181
131	0x3c1eff0a	0.009704361
132	0xbd0a799c	-0.033807382
133	0xbca25c07	-0.019819273
134	0x3c20d8bd	0.009817299
135	0xbd2c1d55	-0.04202016
136	0x3cd32f83	0.025779491
137	0xbb9af01b	-0.00472833
138	0x3d57e32c	0.052706882
139	0x3d6a1691	0.057150427
140	0xbcf15cd8	-0.029463217
141	0xbcfe855c	-0.03106945
142	0xbcd8b449	-0.026453154
143	0x3d0b639d	0.034030546
144	0x3bb23a2e	0.0054390645
145	0xbc872b98	-0.01650028
146	0xbce08504	-0.027407177
147	0x3ce294c5	0.02765883
148	0x3d3095cf	0.04311162
149	0xbc8e9919	-0.017406987
150	0x3c9f3acf	0.019437222
151	0xb9b09cf8	-0.00033686287
152	0xbc2fecee	-0.010737641
153	0xbc26b843	-0.010175767
154	0x3d0e1f36	0.034697734
155	0x3c435912	0.0119230915
156	0x3ca88ea1	0.020575823
157	0x3cbe9ad0	0.02326718
158	0xbc3bc923	-0.011461529
159	0xbd13ca33	-0.036081504
160	0xbadb0412	-0.0016709587
161	0x3bcb58dc	0.006205661
162	0x3cd90325	0.026490757
163	0x3c76e3fb	0.015069003
164	0x3beb5eaa	0.0071829157
165	0xbcdb822b	-0.026795467
166	0xbd256cf9	-0.040387128
167	0xbcb3a280	-0.021928072
168	0xbd01d2e3	-0.031695258
169	0xbc6141e5	-0.013748621
170	0x3cda5dd0	0.026656061
171	0xbd129de3	-0.035795104
172	0x3c834f35	0.01602898
173	0x3cbd097f	0.023075817
174	0x3b73304e	0.003710765
175	0x3c637303	0.013882401
176	0x3d3e0920	0.04639542
177	0xbc60a8c9	-0.0137121165
178	0x3d18a141	0.03726316
179	0x3b820f6a	0.0039691227
180	0x3c80f243	0.01574052
181	0x3c5e1868	0.013555624
182	0xbca3d4a4	-0.019998856
183	0x3cf39f45	0.029739032
184	0xbcdce5b9	-0.026965009
185	0x3ca16cb9	0.019705163
186	0x3bf38512	0.0074316347
187	0x3d35b4ae	0.044361763
188	0x3c9693b1	0.018380972
189	0x3b509c3d	0.0031831407
190	0xbb63d284	-0.0034762928
191	0x3cf267ee	0.029590573
192	0x3c4ec080	0.012619138
193	0xbcb55d5a	-0.02213924
194	0xbce85eb4	-0.02836547
195	0x3d01ae05	0.0316601
196	0x3cd0446f	0.025423257
197	0xbc19845b	-0.009369935
198	0xbc9432a7	-0.01809056
199	0x3c49009b	0.012268211
200	0xbc30935b	-0.01077732
201	0x3c52af9e	0.012859253
202	0x3d0e8a0c	0.03479962
203	0xb9d4614b	-0.0004050828
204	0x3c3b6b9c	0.01143923
205	0xbd33e2c0	-0.043917418
206	0xbd1062de	-0.035250537
207	0xbc73d122	-0.014881404
208	0x3d5dc06d	0.05413859
209	0x3da3fded	0.08007417
210	0xbbc3bd25	-0.0059734755
211	0x3d1b7b5b	0.037959438
212	0x3cb216ef	0.021739451
213	0x3c94f0c8	0.01818122
214	0xbbd62fba	-0.006536451
215	0xb9f75e71	-0.00047181876
216	0x3ce0cc38	0.02744113
217	0x3d250f3a	0.040297724
218	0x3be4d640	0.0069835484
219	0x3c0c038b	0.008545767
220	0x3d05cb30	0.032664478
221	0xbc9c1e3e	-0.01905739
222	0x3d91b252	0.0711409
223	0x3c39f9bf	0.011351048
224	0xbcc3f5ee	-0.02392098
225	0x3d871735	0.06596223
226	0x3cb6bc6e	0.022306647
227	0x3b79048a	0.003799709
228	0x3c1d9406	0.009617811
229	0x3b78bcf1	0.0037954415
230	0xbc58b9d7	-0.013227901
231	0x3d134229	0.035951767
232	0x3b89dd9f	0.0042073275
233	0xbcb691c6	-0.022286307
234	0x3d454c87	0.048168685
235	0xbccae6a2	-0.024768177
236	0x3d7de4ea	0.061985888
237	0x3d6bdca8	0.05758348
238	0x3c99063a	0.018679727
239	0xbbfe3b24	-0.007758515
240	0xbcda61be	-0.026657935
241	0x3cd76506	0.026293289
242	0x3d5a4895	0.053291876
243	0x3d49e79d	0.04929315
244	0xbce7a510	-0.02827695
245	0xbd032b43	-0.03202368
246	0x3cfa966a	0.030589301
247	0x3c113471	0.008862601
248	0x3ce7c10b	0.028290292
249	0x3d08b80d	0.03337865
250	0x3cee7aa5	0.029111216
251	0x3d37bd43	0.04485823
252	0x3d34c936	0.044137202
253	0xbc8607ea	-0.016361196
254	0x3c96cd13	0.018408334
255	0x3c13c713	0.009019631

fc2.weight f4 [128, 256]
0	0x3d5c003f	0.053711172
1	0x3cfc9ecc	0.030837439
2	0xbd6bbb37	-0.05755159
3	0xbce5de7d	-0.028060192
4	0xbce8f181	-0.02843547
5	0xbdbc44ab	-0.09192785
6	0xbd9e53ac	-0.07730803
7	0x3d579b10	0.052638113
8	0xbd2f061b	-0.042730432
9	0xbd9a0cec	-0.07521996
10	0x3bcec697	0.006310295
11	0xbd85d4df	-0.065347426
12	0x3bd025a1	0.006352142
13	0xbc06440b	-0.008194934
14	0x3cbb1c5b	0.02284067
15	0xbb38b0aa	-0.0028181472
16	0x3d9eafe1	0.0774839
17	0xbc9b0655	-0.018923918
18	0x3d84f3d7	0.06491821
19	0x3db57506	0.08860211
20	0x3e08ba3b	0.13352291
21	0xbd49d953	-0.049279522
22	0x3cc96815	0.024585763
23	0x3d38bc07	0.04510119
24	0xbd0bf830	-0.034172237
25	0xbda1da55	-0.07902972
26	0x3d5864a5	0.052830357
27	0x3d161fdf	0.03665149
28	0xbcb41635	-0.021983245
29	0xbbfad28f	-0.007654495
30	0x3d430f33	0.047621917
31	0x3e11ac3a	0.14225855
32	0x3cfef5f1	0.031123133
33	0xbd06e2d8	-0.03293118
34	0xbd1d97f0	-0.038474977
35	0xbc39d9e9	-0.011343458
36	0xbd3e12e2	-0.046404727
37	0xbcc43304	-0.023950107
38	0xbbcfbbe5	-0.0063395374
39	0x3c0faf83	0.008769873
40	0x3d8d0e60	0.068875074
41	0x3cfde743	0.030994063
42	0x3d9e6168	0.077334225
43	0xbc8bf9d2	-0.017086897
44	0x3c7f9be6	0.015601134
45	0x3dbd4d14	0.09243217
46	0xbb5c16ec	-0.0033582998
47	0xbd516ed9	-0.051131103
48	0x3d036979	0.03208301
49	0xbd80763e	-0.06272553
50	0xbd44bb2f	-0.048030075
51	0x3d7a8bf6	0.061168633
52	0x3c922369	0.01783915
53	0xbb2079d2	-0.0024486673
54	0x3d20ce39	0.03925917
55	0xbd383d77	-0.044980492
56	0x3ce7c745	0.028293261
57	0xbd4c59a5	-0.04989018
58	0x3b2aa921	0.002604075
59	0x3d8de818	0.06929034
60	0x3d946973	0.07246675
61	0xbd8b5b13	-0.068044804
62	0xbd31b006	-0.04338076
63	0x3bb67c69	0.00556903
64	0xbb01829e	-0.0019761692
65	0x3c3ab67f	0.0113960495
66	0x3db9217d	0.090395905
67	0x3d4096f2	0.047018953
68	0x3c642907	0.013925797
69	0x3de8729a	0.113499835
70	0x3bc191d7	0.005907278
71	0x3c1f9de7	0.009742237
72	0xbd185448	-0.037189752
73	0x3c745cbd	0.014914689
74	0x3d3e7e39	0.046507094
75	0x3d89025c	0.06689903
76	0x3c8de96b	0.017323216
77	0x3d03642e	0.03207796
78	0xbbcc1ffd	-0.0062293992
79	0xbd09ceef	-0.033644613
80	0x3dc2fe38	0.09521145
81	0x3db732c0	0.08945227
82	0x3d6e76ac	0.058218643
83	0x3d59fd06	0.053219818
84	0xbccb263f	-0.02479851
85	0x3d45c3fd	0.048282612
86	0x3b0ad14f	0.0021181887
87	0x3d3e6f9d	0.04649316
88	0xbdae5278	-0.085118234
89	0xbc3c4790	-0.011491671
90	0xbb868f74	-0.0041064564
91	0xbc2d927f	-0.010594009
92	0x3c575ad6	0.013144216
93	0xbd988553	-0.074473046
94	0xbb0ca51e	-0.0021460722
95	0x3d553cb2	0.052059837
96	0x3d83e512	0.06440176
97	0x3c712594	0.014718432
98	0xbd438726	-0.04773631
99	0xbba412c3	-0.0050071194
100	0x3cd0afbf	0.025474427
101	0xbaf082be	-0.0018349511
102	0x3e101a4c	0.14072531
103	0x3c47b5e8	0.012189366
104	0xbd252d30	-0.040326297
105	0x3b9f3bea	0.0048594372
106	0x3d1f2f49	0.038863454
107	0x3c41bd7d	0.011824963
108	0xbd7bb0c3	-0.06144787
109	0xbd4cd575	-0.050008256
110	0xbc718df2	-0.014743315
111	0x3d4b91b1	0.04969949
112	0xbbbde768	-0.005795408
113	0xbd8395a7	-0.06425028
114	0xbca237d8	-0.019802019
115	0xbd298350	-0.041384995
116	0x3d266cba	0.040631033
117	0xbdb85a1b	-0.09001561
118	0xbcc9c9d9	-0.024632381
119	0x3d3179df	0.043329116
120	0x3d8f6d09	0.07003219
121	0x3d0baca4	0.03410019
122	0x3c858046	0.016296517
123	0x3d2d14e8	0.042256266
124	0x3d08a1f9	0.033357594
125	0x3d38972b	0.04506604
126	0xbcbb203a	-0.022842515
127	0x3deb2214	0.11481109
128	0x3d8d7e57	0.06908863
129	0xbb6824c5	-0.0035422307
130	0x3d6274c4	0.055287138
131	0xbce171c5	-0.02752007
132	0xbd8b36db	-0.06797572
133	0xbd7a5015	-0.06111153
134	0xbd01bf8b	-0.03167681
135	0xbd5743df	-0.05255496
136	0x3ca8bded	0.020598376
137	0x3d4e4699	0.050360296
138	0xbbbff1c7	-0.0058576795
139	0xbcc8a0a3	-0.02449066
140	0xbcb01f87	-0.021499408
141	0xbd96964c	-0.073528856
142	0x3d53e3e3	0.051731
143	0xbb1c406c	-0.002384211
144	0x3d1a41aa	0.03766028
145	0xbc481798	-0.012212656
146	0x3d044bd9	0.032298896
147	0xbd8ce72a	-0.068800285
148	0x3d37d131	0.044877235
149	0xbd17103c	-0.036880717
150	0xbc6d7c79	-0.014495009
151	0x3d263b44	0.040583864
152	0x3dc76997	0.097369365
153	0x3d31c8bd	0.04340433
154	0x3df02fe4	0.117278844
155	0x3d638195	0.0555435
156	0xbd5d785a	-0.054069854
157	0x3be92b55	0.0071157613
158	0x3d7fdd6d	0.062467027
159	0xbd213e33	-0.03936596
160	0xbcc753d0	-0.024331957
161	0xbd2324d9	-0.039830063
162	0xbd2919e6	-0.041284464
163	0x3d6b31a9	0.057420406
164	0x3d836d97	0.06417387
165	0xbbb88ccc	-0.0056320187
166	0xbd5ddc91	-0.054165427
167	0x3da26282	0.07928945
168	0xbce023c7	-0.02736081
169	0x3d9bfae5	0.07616214
170	0x3da6d6d3	0.08146443
171	0xbd716532	-0.058934398
172	0xbd5354ee	-0.051594667
173	0xbd443524	-0.04790224
174	0x3b209b95	0.0024506797
175	0x3d2fcd2f	0.042920288
176	0x3dd62a76	0.104573175
177	0xbca15584	-0.019694097
178	0xbd1eb8f4	-0.038750604
179	0x3d23fca0	0.040035844
180	0xbd88d443	-0.06681111
181	0xbbfe3b00	-0.007758498
182	0x3d88077b	0.06642052
183	0x3d22ed40	0.03977704
184	0xbc398382	-0.011322858
185	0x3d2b8c9e	0.04188215
186	0xbc83dab3	-0.016095495
187	0x3d350945	0.044198293
188	0x3c8ab7fa	0.01693343
189	0x3d2558a4	0.040367737
190	0xbb1a16b2	-0.0023512063
191	0x3d1e2e59	0.03861842
192	0x3e07f0b4	0.13275415
193	0x3cf6f5cb	0.0301465
194	0x3b72b56b	0.0037034403
195	0x3d665717	0.0562354
196	0xbc0f2226	-0.008736169
197	0xbd87611c	-0.06610319
198	0xbd24f9e1	-0.040277366
199	0x3d245153	0.04011662
200	0x3cef255a	0.029192615
201	0xbd929c3f	-0.07158708
202	0x3c287ea2	0.010284098
203	0x3d838b42	0.06423046
204	0xbdbab579	-0.091166444
205	0x3cb1e16e	0.021713939
206	0xbd01ad0c	-0.03165917
207	0x3dd0d1b2	0.10196246
208	0x3da4e6c9	0.08051831
209	0x3d9b2c2b	0.07576784
210	0xbc75aced	-0.014994842
211	0xbdeb94af	-0.115029685
212	0xbd97c4ab	-0.07410558
213	0xbd918c6d	-0.07106862
214	0x3d497442	0.049183138
215	0x3d5c7844	0.05382563
216	0xbd85ca7f	-0.06532764
217	0xbccbc7ff	-0.024875639
218	0xbc02567b	-0.007955189
219	0xbcf85760	-0.030315101
220	0xbd6434ae	-0.0557143
221	0x3d2caa9f	0.042154904
222	0x3e0015fa	0.12508383
223	0xbc859604	-0.016306885
224	0xbd377401	-0.044788364
225	0x3cf248ad	0.02957567
226	0xbd7c133a	-0.061541773
227	0xbd37c08c	-0.04486136
228	0xbdaff61c	-0.085918635
229	0x3bacfe03	0.005279304
230	0x3c458f80	0.012058139
231	0xbcf73984	-0.030178793
232	0x3a5e089b	0.000846991
233	0xbd56ea8c	-0.052469775
234	0x3d076fe6	0.0330657
235	0x3ce436ee	0.027858224
236	0x3dac9f7d	0.084288575
237	0x3d5b39a2	0.05352176
238	0x3d031db2	0.03201074
239	0xbd31f73f	-0.043448683
240	0x3d659e9e	0.056059472
241	0x3dc732f0	0.097265124
242	0xbb5bf531	-0.0033562894
243	0x3d829483	0.063759826
244	0xbd9c7f2c	-0.076414436
245	0xbda2a8cc	-0.07942352
246	0xbdc74d20	-0.09731507
247	0xbcc65081	-0.02420831
248	0x3d970231	0.07373465
249	0x3d9378e9	0.07200796
250	0x3dcd4f1a	0.10024853
251	0xba4fee91	-0.00079319725
252	0xbd272eff	-0.040816303
253	0xbdd2c679	-0.10291762
254	0x3d49d769	0.049277697
255	0xbd1b2994	-0.03788145

fc2.bias f4 [128]
0	0x3e20b896	0.15695414
1	0x3d332beb	0.043743055
2	0x3ad4d8c2	0.0016238915
3	0x3dade97c	0.08491799
4	0xbd3f3f13	-0.04669101
5	0xbd1a8978	-0.037728757
6	0x3c9d1ee1	0.019179763
7	0x3cd0e504	0.025499828
8	0xbcbfc230	-0.023408026
9	0xbcd1e232	-0.025620554
10	0x3d39e86a	0.045387663
11	0xbcd1aa10	-0.025593787
12	0xbc48802b	-0.012237589
13	0xbb3e5f6d	-0.0029048577
14	0x3ba449c5	0.005013677
15	0xbd1f7ab9	-0.038935397
16	0xbbbb8fe5	-0.0057239407
17	0xbd65189a	-0.055931665
18	0xbd09eb56	-0.0336717
19	0xbd367c39	-0.04455206
20	0x3d3f3cb2	0.046688743
21	0x3d264283	0.040590774
22	0xbba7ccb9	-0.0051208404
23	0xbd66f84a	-0.05638913
24	0xbd9a156a	-0.07523616
25	0xbd54553c	-0.0518391
26	0x3d27418e	0.040834002
27	0xbd930692	-0.071789876
28	0x3db75a0c	0.08952722
29	0xbd852d86	-0.065028235
30	0x3cf8eb5e	0.03038567
31	0xbd570664	-0.05249633
32	0x3d5ac2a7	0.05340829
33	0x3be6d299	0.007044148
34	0xbc880ac1	-0.01660669
35	0x3d39dafa	0.045374848
36	0x3ddaf458	0.10691136
37	0x3cac733b	0.02105104
38	0x3cc15b16	0.023603003
39	0x3c21751c	0.009854581
40	0x3d2f1233	0.042741966
41	0xbbf60b5a	-0.0075086774
42	0x3d85d719	0.06535167
43	0xbdb0a96c	-0.08626065
44	0xbc0abf1b	-0.008468415
45	0x3d9e6dc7	0.07735782
46	0x3d9fd531	0.07804335
47	0xbcf1b277	-0.029504044
48	0x3d61da06	0.055139564
49	0x3cb1ff60	0.021728218
50	0x3cbe571a	0.023234893
51	0x3db4aa42	0.088215366
52	0xbc904b99	-0.017614173
53	0x3d8cadda	0.06869097
54	0x3ca40d6f	0.020025937
55	0x3dd19f99	0.10235519
56	0xbd5ff37f	-0.054675575
57	0xbd2748da	-0.04084096
58	0x3d1ba2de	0.03799712
59	0x3ccb4149	0.024811404
60	0xbd7c4abc	-0.06159471
61	0x3cea9a9b	0.028638175
62	0x3d127469	0.03575555
63	0x3d5660f5	0.05233856
64	0x394a69d4	0.00019303645
65	0xbd1eecb1	-0.038799945
66	0x3bb34bac	0.0054716673
67	0xbcf78a2d	-0.030217255
68	0x3cf6a910	0.030109912
69	0x3d8968ff	0.067094795
70	0x3d6baf79	0.05754039
71	0xbd3dd30d	-0.04634385
72	0xbd75b6b1	-0.05998868
73	0x3d25b66d	0.040457178
74	0x3df30ee0	0.118680716
75	0xbce3e95b	-0.027821233
76	0x3dadb739	0.084822126
77	0x3cb6c737	0.02231179
78	0xbd76428c	-0.060122058
79	0xbd474e43	-0.04865862
80	0xbc6c1c43	-0.014411035
81	0x3c83edc8	0.016104594
82	0xbd2b8693	-0.041876387
83	0x3d568d24	0.052380696
84	0x3c866847	0.016407145
85	0x3cf7dbf2	0.030256245
86	0xbd276c04	-0.040874496
87	0x3d85b075	0.06527797
88	0x3d9c5192	0.07632746
89	0x3b772757	0.0037712657
90	0x3d3e3882	0.04644061
91	0x3d3d52a4	0.04622139
92	0x3d0d6567	0.034520533
93	0x3ca9c1e7	0.020722343
94	0x3cca788a	0.02471568
95	0xbd0ecf78	-0.034865826
96	0xbbb4d0c8	-0.0055180527
97	0xbcb5b999	-0.022183226
98	0x3d71c824	0.05902876
99	0x3d9a8b88	0.07546145
100	0x3dca91ab	0.09891065
101	0x3ca576e2	0.02019829
102	0x3da04cd2	0.07827152
103	0xbbd7298c	-0.006566232
104	0xbcf05623	-0.029337948
105	0xbcbe89ab	-0.023259005
106	0x3d483f1f	0.048888322
107	0x3ddcf0e0	0.10788131
108	0x3cd4458a	0.025912065
109	0x3d277a59	0.040888164
110	0xbd477fc2	-0.048705824
111	0x3d009efb	0.031401616
112	0xbbe9c2c3	-0.007133813
113	0xbc08bd3f	-0.008345901
114	0xbd9463b7	-0.072455816
115	0xbc8c46f5	-0.017123679
116	0x3d9e6979	0.07734961
117	0x3ce844a5	0.028353045
118	0xbd8edaad	-0.06975303
119	0x3d779fff	0.06045532
120	0x3d751f26	0.05984416
121	0x3b0125f8	0.001970647
122	0x3db0071a	0.085951045
123	0xbce387e3	-0.027774757
124	0x3c23bdf8	0.009994023
125	0x3d295928	0.04134479
126	0x3db8dd5e	0.090265974
127	0x3d1a7581	0.037709717

fc3.weight f4 [64, 128]
0	0x3e36e870	0.17862105
1	0x3dd50eae	0.104031906
2	0xbd3c2c07	-0.045940425
3	0x3e0886ae	0.13332626
4	0xbcc8d653	-0.02451626
5	0xbd37726c	-0.044786856
6	0x3da45f07	0.080259375
7	0xbc2c0acf	-0.010500624
8	0x3d297dce	0.041379742
9	0x3bcba7a0	0.006215051
10	0x3dc0f388	0.0942145
11	0x3db9f255	0.09079424
12	0xbd8d4a5e	-0.0689895
13	0xbd136dba	-0.035993315
14	0x3bed5aa4	0.007243471
15	0x3d84445e	0.064583525
16	0x3da479f4	0.08031073
17	0xbdb69837	-0.089157514
18	0xbd721985	-0.05910637
19	0xbd8b530a	-0.06802948
20	0xbc5d7471	-0.013516531
21	0x3e0bed85	0.13664825
22	0xbd1f7e13	-0.038938593
23	0x3dbe574b	0.092939936
24	0xbdb2c33c	-0.08728644
25	0xbddb5f40	-0.10711527
26	0xbce27ba3	-0.027646845
27	0x3dd67da7	0.10473185
28	0x3e16ac53	0.14714174
29	0x3d76b033	0.06022663
30	0xbd836040	-0.064148426
31	0x3d32a5c3	0.043615114
32	0xbd718fb9	-0.058974955
33	0xbb23557c	-0.0024922779
34	0xbce4e155	-0.027939478
35	0x3cc395e0	0.023875177
36	0x3d984663	0.074353
37	0xbc2dde27	-0.010612047
38	0xbe0f75df	-0.14009808
39	0x3daa162a	0.08305009
40	0x3d896e6b	0.06710514
41	0x3d23c41a	0.03998194
42	0x3d01fd48	0.03173569
43	0x3dc70d2f	0.097193114
44	0xbc28832c	-0.01028518
45	0x3e2221eb	0.15833251
46	0xbc8a24f8	-0.016863331
47	0xbc97eba7	-0.018544985
48	0xbdbfd723	-0.09367206
49	0x3e0051f1	0.12531258
50	0x3d7e837f	0.062137123
51	0x3da2f074	0.07956019
52	0xbd86e045	-0.06585745
53	0xbd10bcae	-0.03533619
54	0xbdce9b1d	-0.10088179
55	0x3d33ca52	0.04389412
56	0xbde8c835	-0.113663115
57	0xbd0cbf54	-0.034362152
58	0xbd535ace	-0.05160027
59	0x3c850a98	0.016240403
60	0xbd53072e	-0.05152052
61	0x3d863408	0.06552893
62	0x3dbe8966	0.093035504
63	0xbc22641e	-0.009911565
64	0xbbe11d5f	-0.0068699564
65	0x3d4c3228	0.04985252
66	0x3cdce095	0.026962558
67	0x3d854951	0.065081246
68	0xbd8edb9f	-0.06975483
69	0xbdbacfa8	-0.091216385
70	0x3afed4d7	0.0019442093
71	0xbdc9787a	-0.09837432
72	0x3d7fe7a6	0.062476777
73	0x3d54a105	0.051911373
74	0x3d8e9141	0.06961299
75	0x3ce25b99	0.027631568
76	0x3d55010b	0.052002948
77	0xbce676f2	-0.02813289
78	0xbd87510d	-0.06607256
79	0x3d106a63	0.03525771
80	0x3c697f81	0.014251591
81	0xbc7ccf69	-0.01543031
82	0x3da1d38b	0.07901677
83	0x3de5aa0e	0.11214076
84	0x3bdf7971	0.006819897
85	0xbd020038	-0.03173849
86	0xbd904b6b	-0.07045635
87	0xbd805a44	-0.06267217
88	0x3e1bc7af	0.15212892
89	0xbdf1482a	-0.11781342
90	0x3ca9368c	0.020655893
91	0xbd402e64	-0.04691924
92	0x3ce45acd	0.027875328
93	0x3d73afa5	0.05949368
94	0x3dc4c778	0.09608358
95	0xbddb362f	-0.10703694
96	0x3e033772	0.1281412
97	0x3d5e679c	0.05429803
98	0x3c119103	0.008884671
99	0xbda3fdb8	-0.080073774
100	0x3df81d19	0.12114925
101	0xbc9ae861	-0.018909635
102	0x3e398414	0.1811679
103	0x3c3f06d4	0.011659343
104	0xbc4a4707	-0.012346036
105	0x3c10dce2	0.008841725
106	0xbc0f532a	-0.008747855
107	0xbd429149	-0.047501836
108	0xbd8d7e26	-0.069088265
109	0xbe2bc05d	-0.167726
110	0x3ccf2a68	0.025288776
111	0xbcc5e6fe	-0.024157997
112	0xbdaeace0	-0.08529067
113	0x3e264af5	0.16239531
114	0xbd4c25eb	-0.04984085
115	0xbcf8ce09	-0.030371683
116	0x3ddbd45e	0.10733865
117	0xbd4e68b1	-0.05039281
118	0x3a435432	0.0007451206
119	0x3d03d51e	0.032185666
120	0x3ceca2c7	0.028886212
121	0x3a859780	0.0010192245
122	0x3da7570f	0.08170902
123	0x3e226d30	0.15861964
124	0xbbd2e332	-0.006435775
125	0xbc142a91	-0.009043352
126	0x3da1233b	0.07868048
127	0x3e0c0a50	0.13675809
128	0xbbc26eb6	-0.005933608
129	0x3d199cec	0.037503168
130	0xbaef341c	-0.0018249783
131	0x3d43c8a3	0.047798764
132	0x3d4479a5	0.04796757
133	0x3e277957	0.16354881
134	0xbdae7e50	-0.08520186
135	0xbd025acf	-0.031824883
136	0xbd3f0027	-0.046631005
137	0xbc888d7f	-0.016669033
138	0x3e49b074	0.19696218
139	0xbbfc37c8	-0.0076970793
140	0x3d97d724	0.07414082
141	0x3df2dd9f	0.11858677
142	0xbbacb1fa	-0.00527024
143	0x3d04df96	0.03243979
144	0xbd78d71e	-0.060752027
145	0xbdd91306	-0.105993316
146	0xbcfffd40	-0.031248689
147	0x3d17a4f8	0.03702256
148	0xbd56568f	-0.052328642
149	0x3e07960c	0.13240832
150	0xbd9bff42	-0.07617046
151	0xbcdd8b4a	-0.027043957
152	0xbdbeb583	-0.09311964
153	0xbd683578	-0.056691617
154	0xbdd8c238	-0.10583919
155	0xbc01d5a4	-0.007924471
156	0x3c5ebe2b	0.013595144
157	0x3d0eaace	0.03483086
158	0x3e705ef8	0.23473728
159	0x3d97c365	0.074103154
160	0x3e809c9c	0.25119483
161	0x3dd513a3	0.10404136
162	0xbd8e3172	-0.06943025
163	0x3d7f2545	0.062291402
164	0xbc70b0a5	-0.014690553
165	0x3e01952a	0.12654558
166	0x3d99ddff	0.075130455
167	0xbbd7c859	-0.0065851626
168	0xbde7a81b	-0.113113604
169	0xbaf851b6	-0.001894525
170	0xbd5055d6	-0.05086311
171	0x3bade4b3	0.005306804
172	0xbcd976de	-0.026545938
173	0x3d13cf01	0.036086086
174	0xbd68e2ec	-0.056857035
175	0x3daaacd9	0.08333749
176	0xbd9d7606	-0.07688527
177	0xbc3709cf	-0.011171772
178	0xbd08ffd7	-0.033447113
179	0xbd96c9ce	-0.0736271
180	0xbd068496	-0.032841288
181	0xbd95cdb1	-0.07314623
182	0x3d93566f	0.0719422
183	0xbdfcad71	-0.12337769
184	0xbd299609	-0.04140285
185	0xbda9be85	-0.08288292
186	0x3bfc4166	0.007698226
187	0x3cd6747c	0.026178591
188	0x3d12b32e	0.03581541
189	0xbd7c5bd0	-0.061610997
190	0xbdeaa1fb	-0.114566766
191	0x3c63c48c	0.013901841
192	0xbcfa9283	-0.03058744
193	0x3cb3ffbc	0.02197253
194	0x3c623452	0.013806419
195	0xbd1891d6	-0.037248455
196	0xbcd2dba0	-0.025739491
197	0xbe01491a	-0.12625542
198	0xbd9b8a5c	-0.07594749
199	0x3cab1d5d	0.020888025
200	0xbd2532dd	-0.04033171
201	0x3d411d6a	0.047147192
202	0x3ddf9b79	0.10918326
203	0x3ccd7ef6	0.025084954
204	0xbcaa1d61	-0.020765962
205	0xbd117672	-0.03551335
206	0x3cae3ce4	0.02126927
207	0xbc5ac176	-0.013351789
208	0x3b62bf73	0.0034598976
209	0xbd6e7133	-0.058213424
210	0xbdca834f	-0.098883264
211	0x3c8957ae	0.016765442
212	0xbd866a1d	-0.06563208
213	0x3c2a3abb	0.010389979
214	0x3bf2e1b4	0.00741216
215	0xbd5cba87	-0.053888824
216	0x3d16314f	0.036668118
217	0x3e6394b1	0.2222469
218	0xbc6155c7	-0.013753361
219	0x3cc7e25e	0.024399932
220	0x3df40d10	0.11916554
221	0x3e1c8520	0.15285158
222	0xbd4fbda5	-0.05071797
223	0x3d89a2af	0.067204826
224	0xbd6d0f0d	-0.05787568
225	0x3c2ecfaf	0.010669633
226	0x3d844e9c	0.06460306
227	0x3e03b57e	0.12862203
228	0xb80fa08a	-3.424337e-05
229	0xbd633dc3	-0.055478822
230	0x3a5481b4	0.00081064855
231	0x3daa43b5	0.08313695
232	0xbd11b736	-0.035575114
233	0xbd8ff932	-0.07029952
234	0xbd697c04	-0.057003036
235	0x3cd379e2	0.025814954
236	0x3d5023ae	0.050815277
237	0x3d064552	0.032780953
238	0x3df4e457	0.11957615
239	0x3d5e4230	0.05426234
240	0xbd91ab55	-0.07112757
241	0x3bd26b7e	0.0064215055
242	0xbc6c085c	-0.01440629
243	0xbd2b1ba7	-0.04177442
244	0xbd6fe689	-0.058569465
245	0x3dc3d288	0.0956164
246	0x3dcd2438	0.10016674
247	0xbde596c3	-0.11210396
248	0x3db4f93f	0.088366024
249	0x3dd08f4e	0.10183583
250	0xbe063124	-0.13104683
251	0xbe0dac69	-0.138353
252	0x3ce72898	0.028217599
253	0xbe0bd047	-0.1365367
254	0xbdd47a1d	-0.10374854
255	0x3e4e8fa5	0.20171984

fc3.bias f4 [64]
0	0x3e3ff489	0.18745627
1	0x3de755ed	0.11295686
2	0x3d9863ee	0.07440935
3	0x3e66445b	0.22487013
4	0xbd426d83	-0.04746772
5	0xbc5e50ef	-0.013569101
6	0x3ce224bf	0.027605413
7	0xbcd28c8a	-0.02570178
8	0x3e18d4b5	0.14924891
9	0xbd803968	-0.062609494
10	0x3dd70918	0.10499781
11	0xbd86c6b5	-0.06580869
12	0x3d61f171	0.055161897
13	0x3cd76cdc	0.026297025
14	0xbddbee77	-0.10738843
15	0x3dafe920	0.08589387
16	0xbd84aef2	-0.06478681
17	0x3d73e56e	0.059544973
18	0xbd4252df	-0.047442313
19	0x3e00b7bc	0.12570089
20	0xbcb84e2e	-0.022498216
21	0xbccff843	-0.025386935
22	0x3d67b686	0.056570552
23	0x3d9dfeeb	0.07714637
24	0x3cf7de21	0.030257287
25	0x3e1e7c00	0.1547699
26	0x3cbaf82a	0.022823412
27	0xbd7eb19f	-0.06218111
28	0xbe05fa2b	-0.13083713
29	0x3df6501b	0.12026998
30	0xbdbbe6bd	-0.09174869
31	0x3e4e73bf	0.20161341
32	0x3dc30367	0.09522133
33	0xbcfc86a4	-0.03082592
34	0x3e2c8743	0.16848473
35	0x3d928774	0.07154742
36	0xbcd7210a	-0.026260871
37	0x3d94d877	0.0726785
38	0xbcfa23e3	-0.03053469
39	0x3e0606f0	0.13088584
40	0x3e58f56c	0.21187371
41	0xbd9917a4	-0.07475212
42	0x3d6521fe	0.05594062
43	0xbd6d8a86	-0.057993434
44	0xbda0a4cc	-0.078439325
45	0xbd6a1143	-0.05714537
46	0xbdaad3bb	-0.08341166
47	0xbd028ce4	-0.031872645
48	0x3e334820	0.17507982
49	0xbd9ad0c8	-0.07559353
50	0x3cc36223	0.023850506
51	0xbd8a0ed8	-0.067411125
52	0xbda5fc92	-0.081048146
53	0x3da988c6	0.082780406
54	0x3d640c43	0.055675756
55	0x3d8a0942	0.06740047
56	0x3e470ca6	0.19438419
57	0xbdae73f9	-0.08518214
58	0x3c626924	0.013819013
59	0x3bf4e0d5	0.007473091
60	0x3e125576	0.14290413
61	0xbe034de6	-0.12822685
62	0xbdc02870	-0.09382713
63	0x3e283b7f	0.16428946

fc4.weight f4 [10, 64]
0	0xbaebfe25	-0.0018004818
1	0xbe6458ed	-0.22299547
2	0x3e673270	0.22577834
3	0xbdbc61fe	-0.09198378
4	0x3e10f5f5	0.14156325
5	0xbd53e234	-0.051729396
6	0x3eb22476	0.34793442
7	0xbeaf60c0	-0.34253502
8	0x3e3ebbc8	0.1862632
9	0x3ce648e5	0.02811093
10	0xbeb96be2	-0.3621512
11	0x3e51a9d3	0.20474939
12	0x3daea6b2	0.08527888
13	0xbd8dbbf6	-0.06920616
14	0xbd6d34a1	-0.05791152
15	0x3cffa4d0	0.031206518
16	0xbeb6550a	-0.35611755
17	0xbdf15a4a	-0.117847994
18	0xbd1d2789	-0.03836778
19	0xbe50b4cc	-0.20381469
20	0x3d3882e2	0.045046695
21	0xbd3823d6	-0.04495605
22	0x3ca7c1d0	0.02047816
23	0xbe8e44b9	-0.27786806
24	0x3e5f3e65	0.21801145
25	0x3d900eb0	0.070340514
26	0x3c81b1c8	0.015831843
27	0x3e00bead	0.12572737
28	0x3bc7968d	0.006090945
29	0xbdcb2734	-0.09919587
30	0xbe0a64cb	-0.13515012
31	0xbeacc433	-0.33743438
32	0xbe2d8662	-0.16945794
33	0xbd167068	-0.036728293
34	0xbe270238	-0.1630944
35	0xbe93085f	-0.28717324
36	0xbd71312d	-0.05888479
37	0x3e2b89c9	0.1675178
38	0x3d52a69e	0.05142843
39	0xbe8cdffa	-0.2751463
40	0x3e3c7229	0.18402924
41	0x3e886619	0.26640394
42	0x3e6f1dcc	0.2335121
43	0xbcdea849	-0.027179854
44	0x3d1e903b	0.038711768
45	0xbd8d18fb	-0.0688953
46	0x3e56630a	0.20936218
47	0xbc42022e	-0.01184134
48	0xbed0f3c3	-0.40810975
49	0x3d609f68	0.05483952
50	0x3de5db8c	0.11223516
51	0x3ca1cbc2	0.01975048
52	0xbd0c716e	-0.034287862
53	0x3cbd4787	0.023105396
54	0x3d3ec241	0.046571974
55	0x3e134bab	0.14384334
56	0xbe130433	-0.1435707
57	0x3ea5c0a1	0.32373527
58	0x3dad477b	0.084608994
59	0xbda1504c	-0.078766435
60	0xbe988aee	-0.29793495
61	0x3e2e9f5d	0.1705298
62	0x3ce60e6c	0.028083049
63	0x3dcb6e14	0.09933105
64	0xbe6edce8	-0.23326457
65	0x3e96512d	0.29358807
66	0xbe6e5cef	-0.23277639
67	0xbe1b8f7c	-0.15191454
68	0xbd118b8e	-0.03553348
69	0xbc47a16d	-0.012184483
70	0xbe8739c1	-0.2641125
71	0x3eb0d9ee	0.34541267
72	0x3e5064db	0.20350973
73	0xbdb14791	-0.08656228
74	0x3d33417e	0.04376363
75	0x3d1d539b	0.03840981
76	0x3e940a6d	0.28914204
77	0x3e2398db	0.15976278
78	0xbcba2554	-0.022722878
79	0x3ddd734b	0.10813006
80	0x3e0e5e52	0.13903168
81	0x3cef073e	0.029178258
82	0xbe0e7b53	-0.13914232
83	0x3e5ee257	0.2176603
84	0xbd8bf498	-0.06833762
85	0xbe320659	-0.17385234
86	0xbddc839e	-0.107672915
87	0x3eb8ce12	0.3609472
88	0xbe998a14	-0.29988158
89	0xbe860f8f	-0.26183745
90	0xbce6f7b7	-0.028194292
91	0xbdcf2de1	-0.101161726
92	0x3d94b182	0.072604194
93	0xbe12fb9a	-0.14353791
94	0xbdef5f06	-0.11688046
95	0xbdc3b9af	-0.09556901
96	0x3d3c459e	0.04596483
97	0x3d8e64cc	0.06952819
98	0x3e76c273	0.24097614
99	0x3c63dced	0.013907653
100	0xbd80f13c	-0.06296012
101	0xbe1603f2	-0.14649943
102	0x3b807973	0.003920728
103	0x3e246207	0.1605302
104	0xbe8ca38e	-0.27468532
105	0xbe9dd967	-0.30829927
106	0xbe89c17a	-0.26905423
107	0xbd486f53	-0.048934292
108	0x3d53a7c6	0.051673673
109	0xbd9a1f90	-0.07525551
110	0xbe1e96e7	-0.15487252
111	0x3de2e0cc	0.11078033
112	0x3e7207bf	0.23635767
113	0xbd441708	-0.047873527
114	0x3e2e2086	0.17004594
115	0x3c86f3ff	0.016473768
116	0xbdd8cfdd	-0.10586522
117	0xbe5abbfe	-0.21360776
118	0x3c91fc45	0.017820487
119	0xbde58ffd	-0.11209104
120	0xbd4b064a	-0.049566545
121	0xbe80c87c	-0.25152957
122	0xbd844c1b	-0.064598285
123	0x3e224173	0.1584528
124	0x3e8c142a	0.27359134
125	0xbe2f2065	-0.17102201
126	0xbec88e46	-0.39171046
127	0xbe86c887	-0.26324865
128	0xbc31575a	-0.010824049
129	0x3ed8996b	0.4230455
130	0x3d2e70bf	0.04258799
131	0x3a287513	0.0006426137
132	0xbdaff4d5	-0.0859162
133	0xbdcf1e44	-0.101131946
134	0xbcce4230	-0.025178045
135	0x3e7a9053	0.24469118
136	0x3d6a4ad4	0.057200268
137	0xbd6d35bd	-0.057912577
138	0xbe14ab39	-0.14518441
139	0xbde2fe8f	-0.110837094
140	0xbec80eee	-0.3907389
141	0x3d1c0e63	0.038099658
142	0x3d76d3cf	0.06026059
143	0xbd79966d	-0.060934473
144	0x3e3760cf	0.17908023
145	0xbde9be93	-0.11413302
146	0x3b88c2af	0.0041735987
147	0x3e3ae690	0.18252015
148	0xbd88bbd2	-0.06676449
149	0xbd452586	-0.04813149
150	0xbda6291e	-0.08113311
151	0x3e9dd3c9	0.30825642
152	0xbd8a6859	-0.06758184
153	0x3e0c109b	0.1367821
154	0xbd6ecd67	-0.058301356
155	0xbe6403b3	-0.22267036
156	0xbd64a133	-0.055817794
157	0x3d026bbd	0.03184103
158	0x3cc3aefc	0.02388715
159	0xbd282f6b	-0.041060846
160	0xbd41d42b	-0.04732148
161	0x3c4753d0	0.012165979
162	0xbe187144	-0.14886957
163	0x3d8fda29	0.070240326
164	0x3dc5f792	0.09666361
165	0x3db88d53	0.090113305
166	0x3d6c0d61	0.057629947
167	0x3c0d49de	0.008623568
168	0xbe2246e0	-0.15847349
169	0x3ea86375	0.3288838
170	0x3e76665f	0.24062489
171	0x3d1938e1	0.03740776
172	0xbda5457c	-0.08069894
173	0x3d377596	0.044789873
174	0xbe693665	-0.22774656
175	0xbd765119	-0.060135935
176	0xbed2d1a5	-0.4117557
177	0xbcd2fd80	-0.025755644
178	0xbd6fc056	-0.058533035
179	0x3d8d0700	0.06886101
180	0x3dd55d6d	0.1041821
181	0xbe83f192	-0.2577024
182	0x3e5d08ab	0.21585338
183	0x3e2c1e53	0.16808443
184	0x3dbb8c32	0.091575995
185	0x3e8e6385	0.27810302
186	0xbddcd1ed	-0.10782228
187	0x3c875afc	0.016522877
188	0x3dcef722	0.101057306
189	0xbcae072f	-0.02124366
190	0x3ee0ef54	0.43932593
191	0xbd06c0bc	-0.03289865
192	0xbeaefe7a	-0.34178525
193	0xbe36ab98	-0.17838895
194	0x3c6f73a0	0.0146149695
195	0x3dec0585	0.1152449
196	0xbe255acd	-0.16147919
197	0xbb249cfb	-0.0025117982
198	0xbd5280b2	-0.051392265
199	0x3e97f55d	0.29679385
200	0x3e3b4728	0.18288863
201	0xbdfac373	-0.1224431
202	0x3c96b16e	0.018395152
203	0x3da82ea2	0.082120195
204	0x3d5a98c4	0.053368345
205	0x3e8efb5a	0.2792614
206	0xbd50a8d2	-0.05094225
207	0x3e296664	0.16542965
208	0x3ea7ddaa	0.32786304
209	0x3d9c5026	0.076324746
210	0xbdc3e478	-0.09565061
211	0xbebf4c9b	-0.37363133
212	0xbe459781	-0.19296075
213	0xbe377999	-0.1791748
214	0xbd289532	-0.04115791
215	0x3e820716	0.2539603
216	0x3dfd8b94	0.12380138
217	0xbea29aaf	-0.3175864
218	0x3d4f24a6	0.05057206
219	0xbe7a8e11	-0.24468257
220	0x3e112975	0.14175971
221	0xbd3a45bf	-0.04547667
222	0x3c09ffc5	0.008422797
223	0x3e40497f	0.18778037
224	0x3e0d94fc	0.13826364
225	0x3d174790	0.03693348
226	0x3e619e47	0.22033034
227	0xbe9bf7d5	-0.30462518
228	0xbd7761d9	-0.06039605
229	0x3e203f9b	0.15649264
230	0xbdbda6a3	-0.09260299
231	0xbea29dc0	-0.3176098
232	0x3ea0f2b7	0.31435177
233	0xbd3aef7d	-0.04563855
234	0x3e0cadce	0.13738176
235	0xbc54911d	-0.012974051
236	0x3c555700	0.013021231
237	0x3dadf9a5	0.084948815
238	0xbe528961	-0.20560218
239	0x3c286c60	0.010279745
240	0xbe05b223	-0.13056235
241	0xbdd72df2	-0.1050681
242	0x3d8c0f4e	0.06838857
243	0xbdc488aa	-0.09596379
244	0x3d9cd219	0.076572604
245	0xbd80d2af	-0.06290185
246	0x3d4522d4	0.048128918
247	0x3e3172bf	0.17328928
248	0x3da16e83	0.078824066
249	0x3ea3662b	0.31913885
250	0x3e8751b0	0.2642951
251	0xbdc791aa	-0.0974458
252	0x3dd07c8b	0.10180005
253	0xbe71810b	-0.23584382
254	0xbdad4c11	-0.08461774
255	0xbe435955	-0.19077046

fc4.bias f4 [10]
0	0xbe8b0fba	-0.27160436
1	0x3e362c28	0.17790282
2	0xbe204d8e	-0.15654585
3	0xbde3050d	-0.11084948
4	0x3d939a61	0.0720718
5	0x3e510393	0.2041152
6	0x3c35ae75	0.011088957
7	0x3d503f31	0.050841514
8	0xbdff45be	-0.12464474
9	0xbc3218ef	-0.010870202
